PyTorch 版本: 1.13.1+cu117
Using device: cuda
Grouping data by WORD...
[Info] 使用 Tiny Conformer 模型
ConformerEncoder(
  (conv_subsample): Conv2dSubampling(
    (sequential): Sequential(
      (0): Conv2d(1, 512, kernel_size=(3, 3), stride=(2, 2))
      (1): ReLU()
      (2): Conv2d(512, 512, kernel_size=(3, 3), stride=(2, 2))
      (3): ReLU()
    )
  )
  (input_projection): Sequential(
    (0): Linear(
      (linear): Linear(in_features=4608, out_features=512, bias=True)
    )
    (1): Dropout(p=0.1, inplace=False)
  )
  (layers): ModuleList(
    (0): ConformerBlock(
      (sequential): Sequential(
        (0): ResidualConnectionModule(
          (module): FeedForwardModule(
            (sequential): Sequential(
              (0): LayerNorm((512,), eps=1e-05, elementwise_affine=True)
              (1): Linear(
                (linear): Linear(in_features=512, out_features=2048, bias=True)
              )
              (2): Swish()
              (3): Dropout(p=0.1, inplace=False)
              (4): Linear(
                (linear): Linear(in_features=2048, out_features=512, bias=True)
              )
              (5): Dropout(p=0.1, inplace=False)
            )
          )
        )
        (1): ResidualConnectionModule(
          (module): MultiHeadedSelfAttentionModule(
            (positional_encoding): PositionalEncoding()
            (layer_norm): LayerNorm((512,), eps=1e-05, elementwise_affine=True)
            (attention): RelativeMultiHeadAttention(
              (query_proj): Linear(
                (linear): Linear(in_features=512, out_features=512, bias=True)
              )
              (key_proj): Linear(
                (linear): Linear(in_features=512, out_features=512, bias=True)
              )
              (value_proj): Linear(
                (linear): Linear(in_features=512, out_features=512, bias=True)
              )
              (pos_proj): Linear(
                (linear): Linear(in_features=512, out_features=512, bias=False)
              )
              (dropout): Dropout(p=0.1, inplace=False)
              (out_proj): Linear(
                (linear): Linear(in_features=512, out_features=512, bias=True)
              )
            )
            (dropout): Dropout(p=0.1, inplace=False)
          )
        )
        (2): ResidualConnectionModule(
          (module): ConformerConvModule(
            (sequential): Sequential(
              (0): LayerNorm((512,), eps=1e-05, elementwise_affine=True)
              (1): Transpose()
              (2): PointwiseConv1d(
                (conv): Conv1d(512, 1024, kernel_size=(1,), stride=(1,))
              )
              (3): GLU()
              (4): DepthwiseConv1d(
                (conv): Conv1d(512, 512, kernel_size=(31,), stride=(1,), padding=(15,), groups=512, bias=False)
              )
              (5): BatchNorm1d(512, eps=1e-05, momentum=0.1, affine=True, track_running_stats=True)
              (6): Swish()
              (7): PointwiseConv1d(
                (conv): Conv1d(512, 512, kernel_size=(1,), stride=(1,))
              )
              (8): Dropout(p=0.1, inplace=False)
            )
          )
        )
        (3): ResidualConnectionModule(
          (module): FeedForwardModule(
            (sequential): Sequential(
              (0): LayerNorm((512,), eps=1e-05, elementwise_affine=True)
              (1): Linear(
                (linear): Linear(in_features=512, out_features=2048, bias=True)
              )
              (2): Swish()
              (3): Dropout(p=0.1, inplace=False)
              (4): Linear(
                (linear): Linear(in_features=2048, out_features=512, bias=True)
              )
              (5): Dropout(p=0.1, inplace=False)
            )
          )
        )
        (4): LayerNorm((512,), eps=1e-05, elementwise_affine=True)
      )
    )
    (1): ConformerBlock(
      (sequential): Sequential(
        (0): ResidualConnectionModule(
          (module): FeedForwardModule(
            (sequential): Sequential(
              (0): LayerNorm((512,), eps=1e-05, elementwise_affine=True)
              (1): Linear(
                (linear): Linear(in_features=512, out_features=2048, bias=True)
              )
              (2): Swish()
              (3): Dropout(p=0.1, inplace=False)
              (4): Linear(
                (linear): Linear(in_features=2048, out_features=512, bias=True)
              )
              (5): Dropout(p=0.1, inplace=False)
            )
          )
        )
        (1): ResidualConnectionModule(
          (module): MultiHeadedSelfAttentionModule(
            (positional_encoding): PositionalEncoding()
            (layer_norm): LayerNorm((512,), eps=1e-05, elementwise_affine=True)
            (attention): RelativeMultiHeadAttention(
              (query_proj): Linear(
                (linear): Linear(in_features=512, out_features=512, bias=True)
              )
              (key_proj): Linear(
                (linear): Linear(in_features=512, out_features=512, bias=True)
              )
              (value_proj): Linear(
                (linear): Linear(in_features=512, out_features=512, bias=True)
              )
              (pos_proj): Linear(
                (linear): Linear(in_features=512, out_features=512, bias=False)
              )
              (dropout): Dropout(p=0.1, inplace=False)
              (out_proj): Linear(
                (linear): Linear(in_features=512, out_features=512, bias=True)
              )
            )
            (dropout): Dropout(p=0.1, inplace=False)
          )
        )
        (2): ResidualConnectionModule(
          (module): ConformerConvModule(
            (sequential): Sequential(
              (0): LayerNorm((512,), eps=1e-05, elementwise_affine=True)
              (1): Transpose()
              (2): PointwiseConv1d(
                (conv): Conv1d(512, 1024, kernel_size=(1,), stride=(1,))
              )
              (3): GLU()
              (4): DepthwiseConv1d(
                (conv): Conv1d(512, 512, kernel_size=(31,), stride=(1,), padding=(15,), groups=512, bias=False)
              )
              (5): BatchNorm1d(512, eps=1e-05, momentum=0.1, affine=True, track_running_stats=True)
              (6): Swish()
              (7): PointwiseConv1d(
                (conv): Conv1d(512, 512, kernel_size=(1,), stride=(1,))
              )
              (8): Dropout(p=0.1, inplace=False)
            )
          )
        )
        (3): ResidualConnectionModule(
          (module): FeedForwardModule(
            (sequential): Sequential(
              (0): LayerNorm((512,), eps=1e-05, elementwise_affine=True)
              (1): Linear(
                (linear): Linear(in_features=512, out_features=2048, bias=True)
              )
              (2): Swish()
              (3): Dropout(p=0.1, inplace=False)
              (4): Linear(
                (linear): Linear(in_features=2048, out_features=512, bias=True)
              )
              (5): Dropout(p=0.1, inplace=False)
            )
          )
        )
        (4): LayerNorm((512,), eps=1e-05, elementwise_affine=True)
      )
    )
    (2): ConformerBlock(
      (sequential): Sequential(
        (0): ResidualConnectionModule(
          (module): FeedForwardModule(
            (sequential): Sequential(
              (0): LayerNorm((512,), eps=1e-05, elementwise_affine=True)
              (1): Linear(
                (linear): Linear(in_features=512, out_features=2048, bias=True)
              )
              (2): Swish()
              (3): Dropout(p=0.1, inplace=False)
              (4): Linear(
                (linear): Linear(in_features=2048, out_features=512, bias=True)
              )
              (5): Dropout(p=0.1, inplace=False)
            )
          )
        )
        (1): ResidualConnectionModule(
          (module): MultiHeadedSelfAttentionModule(
            (positional_encoding): PositionalEncoding()
            (layer_norm): LayerNorm((512,), eps=1e-05, elementwise_affine=True)
            (attention): RelativeMultiHeadAttention(
              (query_proj): Linear(
                (linear): Linear(in_features=512, out_features=512, bias=True)
              )
              (key_proj): Linear(
                (linear): Linear(in_features=512, out_features=512, bias=True)
              )
              (value_proj): Linear(
                (linear): Linear(in_features=512, out_features=512, bias=True)
              )
              (pos_proj): Linear(
                (linear): Linear(in_features=512, out_features=512, bias=False)
              )
              (dropout): Dropout(p=0.1, inplace=False)
              (out_proj): Linear(
                (linear): Linear(in_features=512, out_features=512, bias=True)
              )
            )
            (dropout): Dropout(p=0.1, inplace=False)
          )
        )
        (2): ResidualConnectionModule(
          (module): ConformerConvModule(
            (sequential): Sequential(
              (0): LayerNorm((512,), eps=1e-05, elementwise_affine=True)
              (1): Transpose()
              (2): PointwiseConv1d(
                (conv): Conv1d(512, 1024, kernel_size=(1,), stride=(1,))
              )
              (3): GLU()
              (4): DepthwiseConv1d(
                (conv): Conv1d(512, 512, kernel_size=(31,), stride=(1,), padding=(15,), groups=512, bias=False)
              )
              (5): BatchNorm1d(512, eps=1e-05, momentum=0.1, affine=True, track_running_stats=True)
              (6): Swish()
              (7): PointwiseConv1d(
                (conv): Conv1d(512, 512, kernel_size=(1,), stride=(1,))
              )
              (8): Dropout(p=0.1, inplace=False)
            )
          )
        )
        (3): ResidualConnectionModule(
          (module): FeedForwardModule(
            (sequential): Sequential(
              (0): LayerNorm((512,), eps=1e-05, elementwise_affine=True)
              (1): Linear(
                (linear): Linear(in_features=512, out_features=2048, bias=True)
              )
              (2): Swish()
              (3): Dropout(p=0.1, inplace=False)
              (4): Linear(
                (linear): Linear(in_features=2048, out_features=512, bias=True)
              )
              (5): Dropout(p=0.1, inplace=False)
            )
          )
        )
        (4): LayerNorm((512,), eps=1e-05, elementwise_affine=True)
      )
    )
    (3): ConformerBlock(
      (sequential): Sequential(
        (0): ResidualConnectionModule(
          (module): FeedForwardModule(
            (sequential): Sequential(
              (0): LayerNorm((512,), eps=1e-05, elementwise_affine=True)
              (1): Linear(
                (linear): Linear(in_features=512, out_features=2048, bias=True)
              )
              (2): Swish()
              (3): Dropout(p=0.1, inplace=False)
              (4): Linear(
                (linear): Linear(in_features=2048, out_features=512, bias=True)
              )
              (5): Dropout(p=0.1, inplace=False)
            )
          )
        )
        (1): ResidualConnectionModule(
          (module): MultiHeadedSelfAttentionModule(
            (positional_encoding): PositionalEncoding()
            (layer_norm): LayerNorm((512,), eps=1e-05, elementwise_affine=True)
            (attention): RelativeMultiHeadAttention(
              (query_proj): Linear(
                (linear): Linear(in_features=512, out_features=512, bias=True)
              )
              (key_proj): Linear(
                (linear): Linear(in_features=512, out_features=512, bias=True)
              )
              (value_proj): Linear(
                (linear): Linear(in_features=512, out_features=512, bias=True)
              )
              (pos_proj): Linear(
                (linear): Linear(in_features=512, out_features=512, bias=False)
              )
              (dropout): Dropout(p=0.1, inplace=False)
              (out_proj): Linear(
                (linear): Linear(in_features=512, out_features=512, bias=True)
              )
            )
            (dropout): Dropout(p=0.1, inplace=False)
          )
        )
        (2): ResidualConnectionModule(
          (module): ConformerConvModule(
            (sequential): Sequential(
              (0): LayerNorm((512,), eps=1e-05, elementwise_affine=True)
              (1): Transpose()
              (2): PointwiseConv1d(
                (conv): Conv1d(512, 1024, kernel_size=(1,), stride=(1,))
              )
              (3): GLU()
              (4): DepthwiseConv1d(
                (conv): Conv1d(512, 512, kernel_size=(31,), stride=(1,), padding=(15,), groups=512, bias=False)
              )
              (5): BatchNorm1d(512, eps=1e-05, momentum=0.1, affine=True, track_running_stats=True)
              (6): Swish()
              (7): PointwiseConv1d(
                (conv): Conv1d(512, 512, kernel_size=(1,), stride=(1,))
              )
              (8): Dropout(p=0.1, inplace=False)
            )
          )
        )
        (3): ResidualConnectionModule(
          (module): FeedForwardModule(
            (sequential): Sequential(
              (0): LayerNorm((512,), eps=1e-05, elementwise_affine=True)
              (1): Linear(
                (linear): Linear(in_features=512, out_features=2048, bias=True)
              )
              (2): Swish()
              (3): Dropout(p=0.1, inplace=False)
              (4): Linear(
                (linear): Linear(in_features=2048, out_features=512, bias=True)
              )
              (5): Dropout(p=0.1, inplace=False)
            )
          )
        )
        (4): LayerNorm((512,), eps=1e-05, elementwise_affine=True)
      )
    )
  )
)
[Info] 初始模型權重已從 ./checkpoints/tiny_40_512_4_2.pt 加載。
[Info] use_alpha_beta: True, alpha: 10.0, beta: -5.0

Epoch 1/10
Selected words: ['dumps', 'varied', 'term', 'cheney', 'circles', 'drafting', 'avoiding', 'rooster']
Step 0, Loss: 1.8817, AUC: 0.3515
Selected words: ['trudeau', 'clustering', 'ambassador', 'sprained', 'headaches', 'tennis', 'harrow', 'savagery']
…
